ML_model/model/hello_eat_simple/model_quantized.tflite (tflite, 12904 bytes, 10 tensors)

tfl.pseudo_qconst1 i1 [2, 32]
112 -43 7 127 -52 -76 72 39
-93 119 -29 95 53 112 72 112
81 35 100 -66 36 -52 -28 -68
-113 -57 -51 88 -78 94 -34 -35
-6 56 94 -25 94 -10 -84 -52
83 13 -115 -106 -113 -127 -9 -19
-113 -82 3 29 -119 43 -106 80
42 73 45 -27 1 -55 75 114
00000000: 70d5 077f ccb4 4827 a377 e35f 3570 4870
00000010: 5123 64be 24cc e4bc 8fc7 cd58 b25e dedd
00000020: fa38 5ee7 5ef6 accc 530d 8d96 8f81 f7ed
00000030: 8fae 031d 892b 9650 2a49 2de5 01c9 4b72

tfl.pseudo_qconst3 i1 [32, 32]
-114 -71 -56 -12 -37 38 12 24
-49 17 62 8 -89 -43 16 -127
-10 71 -80 -10 -74 -5 67 -52
-5 -47 46 -63 20 -65 -15 -60
34 -38 -13 54 -28 -42 44 -87
-16 -21 38 71 32 75 -11 -63
11 12 -9 44 -22 59 -56 127
-6 67 -18 -9 84 44 2 -49
-5 59 85 -5 -11 -22 -57 -88
17 -49 56 -8 77 34 17 43
-41 -35 38 14 14 59 17 -6
-38 29 72 40 127 35 76 -66
-127 63 -40 -41 102 61 88 13
43 37 22 -43 -14 -54 -83 -86
60 -50 -8 6 -89 -87 -32 -63
-50 92 22 52 -24 -87 -19 62
103 -71 16 127 28 36 -41 -51
-91 -72 32 19 20 75 100 59
-9 -79 -114 105 95 57 74 -68
16 72 -33 97 66 88 45 5
-11 -17 64 1 -2 3 -50 -25
6 -70 44 34 44 30 -5 30
-52 -22 -57 31 -24 12 71 37
32 33 20 5 33 72 127 -57
-127 -46 25 -45 -6 36 -68 5
-52 8 74 100 -94 41 -46 -93
26 54 -11 -68 -56 59 20 16
-30 -91 15 -94 -27 -26 -74 -3
32 -7 -37 -45 7 -68 61 13
-43 114 0 -47 40 11 127 -60
44 91 -44 -51 6 -51 -22 9
-20 -55 72 27 39 -111 -21 -13
00000000: 8eb9 c8f4 db26 0c18 cf11 3e08 a7d5 1081
00000010: f647 b0f6 b6fb 43cc fbd1 2ec1 14bf f1c4
00000020: 22da f336 e4d6 2ca9 f0eb 2647 204b f5c1
00000030: 0b0c f72c ea3b c87f fa43 eef7 542c 02cf
00000040: fb3b 55fb f5ea c7a8 11cf 38f8 4d22 112b
00000050: d7dd 260e 0e3b 11fa da1d 4828 7f23 4cbe
00000060: 813f d8d7 663d 580d 2b25 16d5 f2ca adaa
00000070: 3cce f806 a7a9 e0c1 ce5c 1634 e8a9 ed3e
00000080: 67b9 107f 1c24 d7cd a5b8 2013 144b 643b
00000090: f7b1 8e69 5f39 4abc 1048 df61 4258 2d05
000000a0: f5ef 4001 fe03 cee7 06ba 2c22 2c1e fb1e
000000b0: ccea c71f e80c 4725 2021 1405 2148 7fc7
000000c0: 81d2 19d3 fa24 bc05 cc08 4a64 a229 d2a3
000000d0: 1a36 f5bc c83b 1410 e2a5 0fa2 e5e6 b6fd
000000e0: 20f9 dbd3 07bc 3d0d d572 00d1 280b 7fc4
000000f0: 2c5b d4cd 06cd ea09 ecc9 481b 2791 ebf3

tfl.pseudo_qconst4 i1 [32] scale=0.006222661 zero_point=23
-0.36091435 -0.012445322 -0.04978129 -0.72805136 0.32980105 -0.018667983 0.6471568 0.5662622
-0.006222661 0.13067588 -0.55381685 -0.34224635 -0.5289262 -0.51648086 -0.9396218 -0.75294197
0.31735572 0.21157047 -0.6844927 -0.2737971 -0.4293636 -0.4480316 -0.36091435 -0.6844927
-0.47292224 -0.49159023 -0.43558627 0.18667984 -0.28001976 -0.38580498 -0.4169183 0.41069564
00000000: dd15 0fa2 4c14 7f72 162c bee0 c2c4 809e
00000010: 4a39 a9eb d2cf dda9 cbc8 d135 ead9 d459

tfl.pseudo_qconst5 i1 [32] scale=0.018710785 zero_point=-128
2.357559 3.8544216 3.6673138 3.0685687 3.8170002 2.694353 4.1537943 3.1621225
2.600799 3.5737598 4.7712502 3.1621225 2.769196 2.4698236 2.8253286 1.7775246
4.172505 2.694353 2.61951 3.124701 2.61951 2.170451 2.7317746 2.3762696
3.9479756 2.338848 3.4989166 2.5446668 2.6569314 2.1891618 1.9646324 2.0581863
00000000: fe4e 4424 4c10 5e29 0b3f 7f29 1404 17df
00000010: 5f10 0c27 0cf4 12ff 53fd 3b08 0ef5 e9ee

tfl.pseudo_qconst6 i1 [1, 1, 32] scale=1.4886921e-06 zero_point=-10
2.5307765e-05 4.4660765e-06 5.5081608e-05 4.7638146e-05 0.00014589183 3.1262534e-05 -3.572861e-05 -6.550245e-05
-6.252507e-05 8.485545e-05 -5.2104224e-05 0.00020395081 0.00013993705 -4.6149453e-05 -0.00010420845 -4.6149453e-05
0.00015631267 9.2298906e-05 -1.0420845e-05 -0.00017566567 6.550245e-05 -2.6796457e-05 -4.317207e-05 -3.2751224e-05
-8.187806e-05 -7.44346e-06 -8.485545e-05 2.2330381e-05 2.9773842e-06 -2.084169e-05 0.0 -8.038937e-05
00000000: 07f9 1b16 580b deca cc2f d37f 54d7 b0d7
00000010: 5f34 ef80 22e4 d9e0 bff1 bd05 f8e8 f6c0

tfl.pseudo_qconst8 i1 [32, 1, 3, 16]
26 77 -31 -27 51 61 37 -20
-65 43 13 37 56 -5 95 -14
-24 27 76 -36 -52 -7 1 44
14 -51 -11 -14 -24 24 -58 -121
30 60 127 -12 -59 70 -86 48
20 57 65 27 -82 30 -50 35
14 51 -70 -33 -18 46 120 -24
-92 -12 -30 -31 68 24 -66 -49
14 10 0 -44 -27 127 29 -6
44 6 -67 9 -14 36 18 16
9 42 -39 -31 -20 -80 31 -41
39 -14 42 -70 45 31 104 -71
-45 -1 -46 46 70 -65 -38 91
28 37 -57 -33 -57 58 -59 44
-47 30 88 72 -33 -26 63 99
89 -24 -16 24 86 127 -44 -95
-30 -34 -20 -13 -20 -14 -13 -23
-22 -22 -1 8 -35 -92 48 -80
20 45 25 2 -15 14 45 8
0 61 15 -15 -58 17 -30 31
-15 68 24 6 -49 6 40 -3
7 7 32 -40 19 -15 46 -36
-40 38 127 29 -54 -4 8 25
12 8 25 -24 40 -13 23 56
80 -11 58 -83 -43 33 8 -66
90 49 83 -67 -17 127 70 -72
-9 57 8 40 87 74 0 -78
-61 42 -50 -36 -30 -14 -43 -82
-66 -55 61 82 -17 -67 -5 -18
-52 -55 -58 -16 2 -51 -32 -65
24 17 -91 53 -84 -70 21 48
5 -14 -36 29 -36 83 16 -16
00000000: 1a4d e1e5 333d 25ec bf2b 0d25 38fb 5ff2
00000010: e81b 4cdc ccf9 012c 0ecd f5f2 e818 c687
00000020: 1e3c 7ff4 c546 aa30 1439 411b ae1e ce23
00000030: 0e33 badf ee2e 78e8 a4f4 e2e1 4418 becf
00000040: 0e0a 00d4 e57f 1dfa 2c06 bd09 f224 1210
00000050: 092a d9e1 ecb0 1fd7 27f2 2aba 2d1f 68b9
00000060: d3ff d22e 46bf da5b 1c25 c7df c73a c52c
00000070: d11e 5848 dfe6 3f63 59e8 f018 567f d4a1
00000080: e2de ecf3 ecf2 f3e9 eaea ff08 dda4 30b0
00000090: 142d 1902 f10e 2d08 003d 0ff1 c611 e21f
000000a0: f144 1806 cf06 28fd 0707 20d8 13f1 2edc
000000b0: d826 7f1d cafc 0819 0c08 19e8 28f3 1738
000000c0: 50f5 3aad d521 08be 5a31 53bd ef7f 46b8
000000d0: f739 0828 574a 00b2 c32a cedc e2f2 d5ae
000000e0: bec9 3d52 efbd fbee ccc9 c6f0 02cd e0bf
000000f0: 1811 a535 acba 1530 05f2 dc1d dc53 10f0

tfl.pseudo_qconst9 i1 [16] scale=0.006684378 zero_point=-22
-0.18716258 0.29411262 0.655069 0.073528156 -0.3876939 0.42780018 0.17379382 0.9959723
0.3275345 -0.020053133 -0.708544 -0.24732198 0.053475022 0.54811895 0.20721571 -0.2673751
00000000: ce16 4cf5 b02a 047f 1be7 80c5 f23c 09c2

tfl.pseudo_qconst10 i1 [16] scale=0.016229158 zero_point=-128
3.5054982 3.0510817 3.4730399 2.661582 3.6840189 3.0186234 3.0186234 4.1384354
3.586644 2.450603 3.602873 2.1747072 2.1260197 2.9374776 2.6128945 3.1322277
00000000: 583c 5624 633a 3a7f 5d17 5e06 0335 2141

tfl.pseudo_qconst11 i1 [1, 1, 16] scale=2.114401e-06 zero_point=65
1.2686406e-05 -2.114401e-05 0.00013109286 -4.8631224e-05 -6.343203e-05 6.343203e-05 -0.00014377927 8.8804845e-05
-7.4004034e-05 -8.8804845e-05 -0.0004038506 -5.920323e-05 -5.2860025e-05 -0.0004080794 -0.00029813053 -0.00032350337
00000000: 4737 7f2a 235f fd6b 1e17 8225 2880 b4a8

tfl.pseudo_qconst13 i1 [16, 1, 3, 11]
3 3 1 4 -1 10 -99 -33
-66 -92 -98 4 4 8 5 -1
53 -94 -56 6 -54 -16 2 3
8 4 -1 27 -22 -127 -73 10
87 -1 4 -60 18 12 23 -1
-40 20 76 -70 -10 -28 -45 -45
13 75 -96 61 16 -90 -127 -48
9 -53 -55 11 -108 33 -6 44
-75 -64 -77 -2 -54 8 35 89
-37 -42 -28 -127 38 -5 -10 -44
-68 18 54 -18 87 60 92 126
-66 -34 -44 -53 34 52 107 66
-41 39 -4 20 -8 12 -5 2
-70 -82 50 -28 -59 73 -27 -6
-2 -10 1 52 127 -87 69 -88
-1 -23 -19 -46 -41 1 4 -37
-108 -101 -51 -114 28 47 18 3
-20 30 -91 -34 87 70 -3 11
24 40 -26 -3 -8 3 -68 -107
38 -127 6 -3 6 -20 -7 -51
92 20 -52 16 64 -42 -32 11
-3 15 39 -78 86 111 49 -32
10 -15 -38 -62 10 39 127 112
-111 -121 54 -44 -50 -40 4 17
46 86 -86 70 -83 -70 28 -64
-39 13 -5 -127 -76 -27 9 50
-62 -24 -18 43 -36 -7 -44 51
-27 -99 7 22 -29 -20 -20 -33
19 36 -81 -31 86 54 -8 -88
42 -45 72 39 -127 -44 -80 -102
-11 99 -83 -58 -115 -65 17 120
92 -7 126 -25 -8 -37 5 -70
00000000: 0303 0104 ff0a 9ddf bea4 9e04 0408 05ff
00000010: 35a2 c806 caf0 0203 0804 ff1b ea81 b70a
00000020: 57ff 04c4 120c 17ff d814 4cba f6e4 d3d3
00000030: 0d4b a03d 10a6 81d0 09cb c90b 9421 fa2c
00000040: b5c0 b3fe ca08 2359 dbd6 e481 26fb f6d4
00000050: bc12 36ee 573c 5c7e bede d4cb 2234 6b42
00000060: d727 fc14 f80c fb02 baae 32e4 c549 e5fa
00000070: fef6 0134 7fa9 45a8 ffe9 edd2 d701 04db
00000080: 949b cd8e 1c2f 1203 ec1e a5de 5746 fd0b
00000090: 1828 e6fd f803 bc95 2681 06fd 06ec f9cd
000000a0: 5c14 cc10 40d6 e00b fd0f 27b2 566f 31e0
000000b0: 0af1 dac2 0a27 7f70 9187 36d4 ced8 0411
000000c0: 2e56 aa46 adba 1cc0 d90d fb81 b4e5 0932
000000d0: c2e8 ee2b dcf9 d433 e59d 0716 e3ec ecdf
000000e0: 1324 afe1 5636 f8a8 2ad3 4827 81d4 b09a
000000f0: f563 adc6 8dbf 1178 5cf9 7ee7 f8db 05ba
