ML_model/model/20251115_181935/asl_glove_int8.tflite (tflite, 13432 bytes, 4 tensors)

tfl.pseudo_qconst1 i1 [29, 32]
38 -2 -85 -104 -71 -73 2 -102
-119 -71 31 25 -46 -117 -88 54
-108 -127 -76 55 -53 -77 60 -44
65 43 -28 -112 -84 42 -103 -31
-52 -96 -40 17 -78 47 29 -71
19 -57 -17 -69 19 -89 46 -73
-127 44 34 -65 -106 25 -99 41
-103 -69 -84 58 -9 -108 35 8
-120 -127 -71 -55 -102 -29 53 21
-90 48 9 4 -60 31 58 -103
-22 74 -98 -90 28 23 -78 -59
43 64 40 -47 -23 -113 -44 19
-80 -38 -52 39 -87 46 -10 -106
15 43 -100 -24 19 15 30 -82
-127 44 -93 9 -37 27 27 -70
-109 51 -64 -36 -50 -68 35 -95
-80 -70 -127 37 -54 -76 -116 31
30 -65 -123 30 -39 30 -74 -62
-93 43 -79 35 39 -72 -119 -24
-58 -26 -68 -30 -59 -67 44 41
-26 -48 20 -34 -67 48 26 -116
-108 -82 -83 -104 41 -81 -75 57
10 -51 43 48 47 -32 -110 -34
44 -123 21 -33 -91 -73 -127 60
-64 -98 -73 -40 -36 -42 48 -40
-50 2 29 -127 56 -80 47 -81
-68 -64 -60 -32 -69 44 -35 -68
-95 -29 -63 -35 45 -89 41 38
-77 -36 4 17 -11 -86 -108 36
-29 -81 -44 51 -104 29 -76 -61
25 -9 -91 -20 36 -52 -96 40
-106 -89 -102 59 -53 -127 23 -82
00000000: 26fe ab98 b9b7 029a 89b9 1f19 d28b a836
00000010: 9481 b437 cbb3 3cd4 412b e490 ac2a 99e1
00000020: cca0 d811 b22f 1db9 13c7 efbb 13a7 2eb7
00000030: 812c 22bf 9619 9d29 99bb ac3a f794 2308
00000040: 8881 b9c9 9ae3 3515 a630 0904 c41f 3a99
00000050: ea4a 9ea6 1c17 b2c5 2b40 28d1 e98f d413
00000060: b0da cc27 a92e f696 0f2b 9ce8 130f 1eae
00000070: 812c a309 db1b 1bba 9333 c0dc cebc 23a1
00000080: b0ba 8125 cab4 8c1f 1ebf 851e d91e b6c2
00000090: a32b b123 27b8 89e8 c6e6 bce2 c5bd 2c29
000000a0: e6d0 14de bd30 1a8c 94ae ad98 29af b539
000000b0: 0acd 2b30 2fe0 92de 2c85 15df a5b7 813c
000000c0: c09e b7d8 dcd6 30d8 ce02 1d81 38b0 2faf
000000d0: bcc0 c4e0 bb2c ddbc a1e3 c1dd 2da7 2926
000000e0: b3dc 0411 f5aa 9424 e3af d433 981d b4c3
000000f0: 19f7 a5ec 24cc a028 96a7 9a3b cb81 17ae

tfl.pseudo_qconst3 i1 [32, 32]
-4 90 -16 5 110 -22 2 -116
22 45 -34 -26 -97 -46 44 29
33 0 -48 -39 -85 -6 -38 39
-1 24 -85 -67 -97 -33 -87 -127
78 19 -12 127 70 123 -41 -66
56 -37 -83 -60 -17 -85 -7 37
13 -28 -1 23 -91 74 -17 -50
-114 54 101 31 -42 -105 -72 118
-18 -26 116 36 -7 70 -48 -98
127 -99 -18 -14 31 23 -30 23
4 -54 58 -2 2 49 -77 29
-108 88 15 -52 36 38 7 -30
-28 -87 -127 -64 -34 -78 -63 79
-55 -61 -59 -60 -4 -33 46 42
42 41 82 -8 1 49 110 22
-48 79 -63 -51 -2 55 -19 106
-25 -17 -10 -1 37 -26 127 -70
-44 90 -55 14 57 -67 -40 -11
48 26 -46 16 -17 32 43 56
-104 33 -29 99 -1 -106 44 42
-25 -71 -85 53 -74 52 -63 -4
11 33 -81 20 70 -89 2 -28
-37 -79 -16 -30 -116 -75 45 19
42 -24 33 -127 -59 11 -49 -71
-105 -10 -33 -17 -8 21 24 0
10 71 -19 49 -93 58 27 38
16 34 -33 -83 61 -127 -24 0
40 -91 2 -20 -25 -62 -17 -107
88 -48 13 -15 2 -8 127 -25
60 31 -25 -2 50 27 28 2
-26 31 9 -47 -35 113 -52 -47
-1 61 -14 -12 -51 -48 8 -53
00000000: fc5a f005 6eea 028c 162d dee6 9fd2 2c1d
00000010: 2100 d0d9 abfa da27 ff18 abbd 9fdf a981
00000020: 4e13 f47f 467b d7be 38db adc4 efab f925
00000030: 0de4 ff17 a54a efce 8e36 651f d697 b876
00000040: eee6 7424 f946 d09e 7f9d eef2 1f17 e217
00000050: 04ca 3afe 0231 b31d 9458 0fcc 2426 07e2
00000060: e4a9 81c0 deb2 c14f c9c3 c5c4 fcdf 2e2a
00000070: 2a29 52f8 0131 6e16 d04f c1cd fe37 ed6a
00000080: e7ef f6ff 25e6 7fba d45a c90e 39bd d8f5
00000090: 301a d210 ef20 2b38 9821 e363 ff96 2c2a
000000a0: e7b9 ab35 b634 c1fc 0b21 af14 46a7 02e4
000000b0: dbb1 f0e2 8cb5 2d13 2ae8 2181 c50b cfb9
000000c0: 97f6 dfef f815 1800 0a47 ed31 a33a 1b26
000000d0: 1022 dfad 3d81 e800 28a5 02ec e7c2 ef95
000000e0: 58d0 0df1 02f8 7fe7 3c1f e7fe 321b 1c02
000000f0: e61f 09d1 dd71 ccd1 ff3d f2f4 cdd0 08cb

tfl.pseudo_qconst5 i1 [32, 1, 3, 16]
-53 -19 42 -61 31 -32 -32 -30
110 -81 48 110 21 -65 39 49
-30 -20 -13 -11 19 -3 -7 8
127 -8 -77 55 -16 38 71 72
57 -42 -37 -77 41 -51 -35 -44
117 -35 -116 26 -25 75 77 32
-35 -34 -103 5 40 -58 10 1
50 65 63 64 53 -100 -69 64
-36 81 -65 -63 98 2 -52 -20
68 67 -41 71 37 -82 -75 -12
79 48 6 -69 90 21 -66 -17
127 67 42 13 -28 -19 -28 6
37 95 40 -74 -47 19 -41 23
83 1 -28 24 100 -69 -10 23
28 -2 69 -82 49 5 -105 -22
60 51 2 -82 26 -28 43 -54
32 37 -3 -70 8 104 -127 -22
62 -90 23 -65 -31 5 73 2
33 -29 7 -124 -35 -2 -64 12
-25 -15 18 -14 -27 5 7 37
-28 45 -51 -100 28 -41 -16 19
-70 17 37 104 -69 57 -53 -10
-13 46 -36 -127 21 29 29 -15
-55 1 -2 18 -2 -9 -9 22
29 -3 -94 43 -6 -41 12 -65
82 -9 48 -65 -78 -18 -3 10
22 -127 -78 16 -68 24 -20 -9
33 58 -3 -108 -7 -50 19 -106
61 -54 -98 -55 23 12 48 82
85 -13 87 -99 -40 -44 6 -82
-40 -68 1 63 -32 -8 28 -4
22 57 -127 -8 -47 15 -38 71
00000000: cbed 2ac3 1fe0 e0e2 6eaf 306e 15bf 2731
00000010: e2ec f3f5 13fd f908 7ff8 b337 f026 4748
00000020: 39d6 dbb3 29cd ddd4 75dd 8c1a e74b 4d20
00000030: ddde 9905 28c6 0a01 3241 3f40 359c bb40
00000040: dc51 bfc1 6202 ccec 4443 d747 25ae b5f4
00000050: 4f30 06bb 5a15 beef 7f43 2a0d e4ed e406
00000060: 255f 28b6 d113 d717 5301 e418 64bb f617
00000070: 1cfe 45ae 3105 97ea 3c33 02ae 1ae4 2bca
00000080: 2025 fdba 0868 81ea 3ea6 17bf e105 4902
00000090: 21e3 0784 ddfe c00c e7f1 12f2 e505 0725
000000a0: e42d cd9c 1cd7 f013 ba11 2568 bb39 cbf6
000000b0: f32e dc81 151d 1df1 c901 fe12 fef7 f716
000000c0: 1dfd a22b fad7 0cbf 52f7 30bf b2ee fd0a
000000d0: 1681 b210 bc18 ecf7 213a fd94 f9ce 1396
000000e0: 3dca 9ec9 170c 3052 55f3 579d d8d4 06ae
000000f0: d8bc 013f e0f8 1cfc 1639 81f8 d10f da47

tfl.pseudo_qconst7 i1 [16, 1, 3, 11]
83 -17 121 73 -50 78 51 19
57 -34 22 -2 81 57 2 14
20 -70 -104 57 -22 127 79 -75
54 78 -1 18 61 -72 32 81
12 -37 127 -77 -18 30 -39 -23
54 16 36 10 -47 38 -51 27
-19 8 22 42 -25 -16 15 -25
70 -59 45 30 -38 14 -10 10
10 -38 -58 3 33 -3 44 31
-26 -9 30 13 19 -89 48 127
-34 -4 -56 -57 42 -22 44 53
-63 12 81 -64 41 37 -15 -4
38 -29 -26 1 63 43 -95 -24
-87 30 -100 -18 -55 -21 -90 87
127 -119 111 -53 -83 -7 89 75
-18 -93 69 75 -49 -42 -34 52
-16 -48 63 -66 -37 51 -44 -127
-29 -52 -62 -59 -68 -26 -12 17
-85 -26 -5 -6 -56 13 67 -1
80 53 87 10 24 -118 -99 -32
41 -18 72 -44 -48 -42 3 -2
103 127 5 104 -56 42 -42 -47
-34 101 103 101 74 -91 -21 19
65 68 37 55 88 96 -21 60
60 -70 85 -92 -27 -29 -9 -1
-127 70 71 -28 -27 0 -15 -15
-43 77 44 -91 32 88 -95 -39
-4 13 9 15 -20 37 16 27
-29 -8 53 -33 54 49 27 60
-114 -27 -22 40 -51 -43 -16 -21
17 58 5 -127 17 44 -35 -28
-62 64 -64 -14 -53 -50 -120 49
00000000: 53ef 7949 ce4e 3313 39de 16fe 5139 020e
00000010: 14ba 9839 ea7f 4fb5 364e ff12 3db8 2051
00000020: 0cdb 7fb3 ee1e d9e9 3610 240a d126 cd1b
00000030: ed08 162a e7f0 0fe7 46c5 2d1e da0e f60a
00000040: 0ada c603 21fd 2c1f e6f7 1e0d 13a7 307f
00000050: defc c8c7 2aea 2c35 c10c 51c0 2925 f1fc
00000060: 26e3 e601 3f2b a1e8 a91e 9cee c9eb a657
00000070: 7f89 6fcb adf9 594b eea3 454b cfd6 de34
00000080: f0d0 3fbe db33 d481 e3cc c2c5 bce6 f411
00000090: abe6 fbfa c80d 43ff 5035 570a 188a 9de0
000000a0: 29ee 48d4 d0d6 03fe 677f 0568 c82a d6d1
000000b0: de65 6765 4aa5 eb13 4144 2537 5860 eb3c
000000c0: 3cba 55a4 e5e3 f7ff 8146 47e4 e500 f1f1
000000d0: d54d 2ca5 2058 a1d9 fc0d 090f ec25 101b
000000e0: e3f8 35df 3631 1b3c 8ee5 ea28 cdd5 f0eb
000000f0: 113a 0581 112c dde4 c240 c0f2 cbce 8831
